…
blocks.2.norm2.bias', 'blocks.3.norm1.weight', 'blocks.3.norm1.bias', 'blocks.3.norm2.weight', 'blocks.3.norm2.bias', 'blocks.4.norm1.weight', 'blocks.4.norm1.bias', 'blocks.4.norm2.weight', 'blocks.4.norm2.bias', 'blocks.5.norm1.weight', 'blocks.5.norm1.bias', 'blocks.5.norm2.weight', 'blocks.5.norm2.bias', 'blocks.6.norm1.weight', 'blocks.6.norm1.bias', 'blocks.6.norm2.weight', 'blocks.6.norm2.bias', 'norm.weight', 'norm.bias'])
[2023-05-11 10:43:07.710469] VisionTransformer(
  (style): Sequential(
    (0): PixelNorm()
    (1): EqualLinear(384, 384)
  )
  (patch_embed): PatchEmbed(
    (proj): Conv2d(3, 384, kernel_size=(16, 16), stride=(16, 16))
    (activation): SinActivation()
  )
  (pos_drop): Dropout(p=0.0, inplace=False)
  (blocks): ModuleList(
    (0): Block(
      (norm1): SelfModulatedLayerNorm(
        (param_free_norm): LayerNorm((384,), eps=0.001, elementwise_affine=True)
        (mlp_gamma): EqualLinear(384, 384)
        (mlp_beta): EqualLinear(384, 384)
      )
      (attn): Attention(
        (qkv): Linear(in_features=384, out_features=1152, bias=True)
        (attn_drop): Dropout(p=0.0, inplace=False)
        (proj): Linear(in_features=384, out_features=384, bias=True)
        (proj_drop): Dropout(p=0.0, inplace=False)
      )
      (drop_path): Identity()
      (norm2): SelfModulatedLayerNorm(
        (param_free_norm): LayerNorm((384,), eps=0.001, elementwise_affine=True)
        (mlp_gamma): EqualLinear(384, 384)
        (mlp_beta): EqualLinear(384, 384)
      )
      (mlp): Mlp(
        (fc1): Linear(in_features=384, out_features=1536, bias=True)
        (act): GELU()
        (fc2): Linear(in_features=1536, out_features=384, bias=True)
        (drop): Dropout(p=0.0, inplace=False)
      )
      (skip): Linear(in_features=197, out_features=256, bias=True)
    )
    (1): Block(
      (norm1): SelfModulatedLayerNorm(
        (param_free_norm): LayerNorm((384,), eps=0.001, elementwise_affine=True)
        (mlp_gamma): EqualLinear(384, 384)
        (mlp_beta): EqualLinear(384, 384)
      )
      (attn): Attention(
        (qkv): Linear(in_features=384, out_features=1152, bias=True)
        (attn_drop): Dropout(p=0.0, inplace=False)
        (proj): Linear(in_features=384, out_features=384, bias=True)
        (proj_drop): Dropout(p=0.0, inplace=False)
      )
      (drop_path): Identity()
      (norm2): SelfModulatedLayerNorm(
        (param_free_norm): LayerNorm((384,), eps=0.001, elementwise_affine=True)
        (mlp_gamma): EqualLinear(384, 384)
        (mlp_beta): EqualLinear(384, 384)
      )
      (mlp): Mlp(
        (fc1): Linear(in_features=384, out_features=1536, bias=True)
        (act): GELU()
        (fc2): Linear(in_features=1536, out_features=384, bias=True)
        (drop): Dropout(p=0.0, inplace=False)
      )
      (skip): Linear(in_features=197, out_features=256, bias=True)
    )
    (2): Block(
      (norm1): SelfModulatedLayerNorm(
        (param_free_norm): LayerNorm((384,), eps=0.001, elementwise_affine=True)
        (mlp_gamma): EqualLinear(384, 384)
        (mlp_beta): EqualLinear(384, 384)
      )
      (attn): Attention(
        (qkv): Linear(in_features=384, out_features=1152, bias=True)
        (attn_drop): Dropout(p=0.0, inplace=False)
        (proj): Linear(in_features=384, out_features=384, bias=True)
        (proj_drop): Dropout(p=0.0, inplace=False)
      )
      (drop_path): Identity()
      (norm2): SelfModulatedLayerNorm(
        (param_free_norm): LayerNorm((384,), eps=0.001, elementwise_affine=True)
        (mlp_gamma): EqualLinear(384, 384)
        (mlp_beta): EqualLinear(384, 384)
      )
      (mlp): Mlp(
        (fc1): Linear(in_features=384, out_features=1536, bias=True)
        (act): GELU()
        (fc2): Linear(in_features=1536, out_features=384, bias=True)
        (drop): Dropout(p=0.0, inplace=False)
      )
      (skip): Linear(in_features=197, out_features=256, bias=True)
    )
    (3): Block(
      (norm1): SelfModulatedLayerNorm(
        (param_free_norm): LayerNorm((384,), eps=0.001, elementwise_affine=True)
        (mlp_gamma): EqualLinear(384, 384)
        (mlp_beta): EqualLinear(384, 384)
      )
      (attn): Attention(
        (qkv): Linear(in_features=384, out_features=1152, bias=True)
        (attn_drop): Dropout(p=0.0, inplace=False)
        (proj): Linear(in_features=384, out_features=384, bias=True)
        (proj_drop): Dropout(p=0.0, inplace=False)
      )
      (drop_path): Identity()
      (norm2): SelfModulatedLayerNorm(
        (param_free_norm): LayerNorm((384,), eps=0.001, elementwise_affine=True)
        (mlp_gamma): EqualLinear(384, 384)
        (mlp_beta): EqualLinear(384, 384)
      )
      (mlp): Mlp(
        (fc1): Linear(in_features=384, out_features=1536, bias=True)
        (act): GELU()
        (fc2): Linear(in_features=1536, out_features=384, bias=True)
        (drop): Dropout(p=0.0, inplace=False)
      )
      (skip): Linear(in_features=197, out_features=256, bias=True)
    )
    (4): Block(
      (norm1): SelfModulatedLayerNorm(
        (param_free_norm): LayerNorm((384,), eps=0.001, elementwise_affine=True)
        (mlp_gamma): EqualLinear(384, 384)
        (mlp_beta): EqualLinear(384, 384)
      )
      (attn): Attention(
        (qkv): Linear(in_features=384, out_features=1152, bias=True)
        (attn_drop): Dropout(p=0.0, inplace=False)
        (proj): Linear(in_features=384, out_features=384, bias=True)
        (proj_drop): Dropout(p=0.0, inplace=False)
      )
      (drop_path): Identity()
      (norm2): SelfModulatedLayerNorm(
        (param_free_norm): LayerNorm((384,), eps=0.001, elementwise_affine=True)
        (mlp_gamma): EqualLinear(384, 384)
        (mlp_beta): EqualLinear(384, 384)
      )
      (mlp): Mlp(
        (fc1): Linear(in_features=384, out_features=1536, bias=True)
        (act): GELU()
        (fc2): Linear(in_features=1536, out_features=384, bias=True)
        (drop): Dropout(p=0.0, inplace=False)
      )
      (skip): Linear(in_features=197, out_features=256, bias=True)
    )
    (5): Block(
      (norm1): SelfModulatedLayerNorm(
        (param_free_norm): LayerNorm((384,), eps=0.001, elementwise_affine=True)
        (mlp_gamma): EqualLinear(384, 384)
        (mlp_beta): EqualLinear(384, 384)
      )
      (attn): Attention(
        (qkv): Linear(in_features=384, out_features=1152, bias=True)
        (attn_drop): Dropout(p=0.0, inplace=False)
        (proj): Linear(in_features=384, out_features=384, bias=True)
        (proj_drop): Dropout(p=0.0, inplace=False)
      )
      (drop_path): Identity()
      (norm2): SelfModulatedLayerNorm(
        (param_free_norm): LayerNorm((384,), eps=0.001, elementwise_affine=True)
        (mlp_gamma): EqualLinear(384, 384)
        (mlp_beta): EqualLinear(384, 384)
      )
      (mlp): Mlp(
        (fc1): Linear(in_features=384, out_features=1536, bias=True)
        (act): GELU()
        (fc2): Linear(in_features=1536, out_features=384, bias=True)
        (drop): Dropout(p=0.0, inplace=False)
      )
      (skip): Linear(in_features=197, out_features=256, bias=True)
    )
    (6): Block(
      (norm1): SelfModulatedLayerNorm(
        (param_free_norm): LayerNorm((384,), eps=0.001, elementwise_affine=True)
        (mlp_gamma): EqualLinear(384, 384)
        (mlp_beta): EqualLinear(384, 384)
      )
      (attn): Attention(
        (qkv): Linear(in_features=384, out_features=1152, bias=True)
        (attn_drop): Dropout(p=0.0, inplace=False)
        (proj): Linear(in_features=384, out_features=384, bias=True)
        (proj_drop): Dropout(p=0.0, inplace=False)
      )
      (drop_path): Identity()
      (norm2): SelfModulatedLayerNorm(
        (param_free_norm): LayerNorm((384,), eps=0.001, elementwise_affine=True)
        (mlp_gamma): EqualLinear(384, 384)
        (mlp_beta): EqualLinear(384, 384)
      )
      (mlp): Mlp(
        (fc1): Linear(in_features=384, out_features=1536, bias=True)
        (act): GELU()
        (fc2): Linear(in_features=1536, out_features=384, bias=True)
        (drop): Dropout(p=0.0, inplace=False)
      )
      (skip): Linear(in_features=197, out_features=256, bias=True)
    )
  )
  (convs): ModuleList(
    (0): StyleLayer(
      (conv): ModulatedConv2d(384, 384, 3, upsample=True)
      (noise): NoiseInjection()
      (activate): FusedLeakyReLU()
    )
    (1): StyleLayer(
      (conv): ModulatedConv2d(384, 384, 3, upsample=False)
      (noise): NoiseInjection()
      (activate): FusedLeakyReLU()
    )
    (2): StyleLayer(
…
blocks.2.norm2.bias', 'blocks.3.norm1.weight', 'blocks.3.norm1.bias', 'blocks.3.norm2.weight', 'blocks.3.norm2.bias', 'blocks.4.norm1.weight', 'blocks.4.norm1.bias', 'blocks.4.norm2.weight', 'blocks.4.norm2.bias', 'blocks.5.norm1.weight', 'blocks.5.norm1.bias', 'blocks.5.norm2.weight', 'blocks.5.norm2.bias', 'blocks.6.norm1.weight', 'blocks.6.norm1.bias', 'blocks.6.norm2.weight', 'blocks.6.norm2.bias', 'norm.weight', 'norm.bias'])
[2023-05-21 10:52:03.364781] VisionTransformer(
  (style): Sequential(
    (0): PixelNorm()
    (1): EqualLinear(384, 384)
  )
  (patch_embed): PatchEmbed(
    (proj): Conv2d(3, 384, kernel_size=(16, 16), stride=(16, 16))
    (activation): SinActivation()
  )
  (pos_drop): Dropout(p=0.0, inplace=False)
  (blocks): ModuleList(
    (0): Block(
      (norm1): SelfModulatedLayerNorm(
        (param_free_norm): LayerNorm((384,), eps=0.001, elementwise_affine=False)
        (mlp_gamma): EqualLinear(384, 384)
        (mlp_beta): EqualLinear(384, 384)
      )
      (attn): Attention(
        (qkv): Linear(in_features=384, out_features=1152, bias=True)
        (attn_drop): Dropout(p=0.0, inplace=False)
        (proj): Linear(in_features=384, out_features=384, bias=True)
        (proj_drop): Dropout(p=0.0, inplace=False)
      )
      (drop_path): Identity()
      (norm2): SelfModulatedLayerNorm(
        (param_free_norm): LayerNorm((384,), eps=0.001, elementwise_affine=False)
        (mlp_gamma): EqualLinear(384, 384)
        (mlp_beta): EqualLinear(384, 384)
      )
      (mlp): Mlp(
        (fc1): Linear(in_features=384, out_features=1536, bias=True)
        (act): GELU()
        (fc2): Linear(in_features=1536, out_features=384, bias=True)
        (drop): Dropout(p=0.0, inplace=False)
      )
      (skip): Linear(in_features=197, out_features=256, bias=True)
    )
    (1): Block(
      (norm1): SelfModulatedLayerNorm(
        (param_free_norm): LayerNorm((384,), eps=0.001, elementwise_affine=False)
        (mlp_gamma): EqualLinear(384, 384)
        (mlp_beta): EqualLinear(384, 384)
      )
      (attn): Attention(
        (qkv): Linear(in_features=384, out_features=1152, bias=True)
        (attn_drop): Dropout(p=0.0, inplace=False)
        (proj): Linear(in_features=384, out_features=384, bias=True)
        (proj_drop): Dropout(p=0.0, inplace=False)
      )
      (drop_path): Identity()
      (norm2): SelfModulatedLayerNorm(
        (param_free_norm): LayerNorm((384,), eps=0.001, elementwise_affine=False)
        (mlp_gamma): EqualLinear(384, 384)
        (mlp_beta): EqualLinear(384, 384)
      )
      (mlp): Mlp(
        (fc1): Linear(in_features=384, out_features=1536, bias=True)
        (act): GELU()
        (fc2): Linear(in_features=1536, out_features=384, bias=True)
        (drop): Dropout(p=0.0, inplace=False)
      )
      (skip): Linear(in_features=197, out_features=256, bias=True)
    )
    (2): Block(
      (norm1): SelfModulatedLayerNorm(
        (param_free_norm): LayerNorm((384,), eps=0.001, elementwise_affine=False)
        (mlp_gamma): EqualLinear(384, 384)
        (mlp_beta): EqualLinear(384, 384)
      )
      (attn): Attention(
        (qkv): Linear(in_features=384, out_features=1152, bias=True)
        (attn_drop): Dropout(p=0.0, inplace=False)
        (proj): Linear(in_features=384, out_features=384, bias=True)
        (proj_drop): Dropout(p=0.0, inplace=False)
      )
      (drop_path): Identity()
      (norm2): SelfModulatedLayerNorm(
        (param_free_norm): LayerNorm((384,), eps=0.001, elementwise_affine=False)
        (mlp_gamma): EqualLinear(384, 384)
        (mlp_beta): EqualLinear(384, 384)
      )
      (mlp): Mlp(
        (fc1): Linear(in_features=384, out_features=1536, bias=True)
        (act): GELU()
        (fc2): Linear(in_features=1536, out_features=384, bias=True)
        (drop): Dropout(p=0.0, inplace=False)
      )
      (skip): Linear(in_features=197, out_features=256, bias=True)
    )
    (3): Block(
      (norm1): SelfModulatedLayerNorm(
        (param_free_norm): LayerNorm((384,), eps=0.001, elementwise_affine=False)
        (mlp_gamma): EqualLinear(384, 384)
        (mlp_beta): EqualLinear(384, 384)
      )
      (attn): Attention(
        (qkv): Linear(in_features=384, out_features=1152, bias=True)
        (attn_drop): Dropout(p=0.0, inplace=False)
        (proj): Linear(in_features=384, out_features=384, bias=True)
        (proj_drop): Dropout(p=0.0, inplace=False)
      )
      (drop_path): Identity()
      (norm2): SelfModulatedLayerNorm(
        (param_free_norm): LayerNorm((384,), eps=0.001, elementwise_affine=False)
        (mlp_gamma): EqualLinear(384, 384)
        (mlp_beta): EqualLinear(384, 384)
      )
      (mlp): Mlp(
        (fc1): Linear(in_features=384, out_features=1536, bias=True)
        (act): GELU()
        (fc2): Linear(in_features=1536, out_features=384, bias=True)
        (drop): Dropout(p=0.0, inplace=False)
      )
      (skip): Linear(in_features=197, out_features=256, bias=True)
    )
    (4): Block(
      (norm1): SelfModulatedLayerNorm(
        (param_free_norm): LayerNorm((384,), eps=0.001, elementwise_affine=False)
        (mlp_gamma): EqualLinear(384, 384)
        (mlp_beta): EqualLinear(384, 384)
      )
      (attn): Attention(
        (qkv): Linear(in_features=384, out_features=1152, bias=True)
        (attn_drop): Dropout(p=0.0, inplace=False)
        (proj): Linear(in_features=384, out_features=384, bias=True)
        (proj_drop): Dropout(p=0.0, inplace=False)
      )
      (drop_path): Identity()
      (norm2): SelfModulatedLayerNorm(
        (param_free_norm): LayerNorm((384,), eps=0.001, elementwise_affine=False)
        (mlp_gamma): EqualLinear(384, 384)
        (mlp_beta): EqualLinear(384, 384)
      )
      (mlp): Mlp(
        (fc1): Linear(in_features=384, out_features=1536, bias=True)
        (act): GELU()
        (fc2): Linear(in_features=1536, out_features=384, bias=True)
        (drop): Dropout(p=0.0, inplace=False)
      )
      (skip): Linear(in_features=197, out_features=256, bias=True)
    )
    (5): Block(
      (norm1): SelfModulatedLayerNorm(
        (param_free_norm): LayerNorm((384,), eps=0.001, elementwise_affine=False)
        (mlp_gamma): EqualLinear(384, 384)
        (mlp_beta): EqualLinear(384, 384)
      )
      (attn): Attention(
        (qkv): Linear(in_features=384, out_features=1152, bias=True)
        (attn_drop): Dropout(p=0.0, inplace=False)
        (proj): Linear(in_features=384, out_features=384, bias=True)
        (proj_drop): Dropout(p=0.0, inplace=False)
      )
      (drop_path): Identity()
      (norm2): SelfModulatedLayerNorm(
        (param_free_norm): LayerNorm((384,), eps=0.001, elementwise_affine=False)
        (mlp_gamma): EqualLinear(384, 384)
        (mlp_beta): EqualLinear(384, 384)
      )
      (mlp): Mlp(
        (fc1): Linear(in_features=384, out_features=1536, bias=True)
        (act): GELU()
        (fc2): Linear(in_features=1536, out_features=384, bias=True)
        (drop): Dropout(p=0.0, inplace=False)
      )
      (skip): Linear(in_features=197, out_features=256, bias=True)
    )
    (6): Block(
      (norm1): SelfModulatedLayerNorm(
        (param_free_norm): LayerNorm((384,), eps=0.001, elementwise_affine=False)
        (mlp_gamma): EqualLinear(384, 384)
        (mlp_beta): EqualLinear(384, 384)
      )
      (attn): Attention(
        (qkv): Linear(in_features=384, out_features=1152, bias=True)
        (attn_drop): Dropout(p=0.0, inplace=False)
        (proj): Linear(in_features=384, out_features=384, bias=True)
        (proj_drop): Dropout(p=0.0, inplace=False)
      )
      (drop_path): Identity()
      (norm2): SelfModulatedLayerNorm(
        (param_free_norm): LayerNorm((384,), eps=0.001, elementwise_affine=False)
        (mlp_gamma): EqualLinear(384, 384)
        (mlp_beta): EqualLinear(384, 384)
      )
      (mlp): Mlp(
        (fc1): Linear(in_features=384, out_features=1536, bias=True)
        (act): GELU()
        (fc2): Linear(in_features=1536, out_features=384, bias=True)
        (drop): Dropout(p=0.0, inplace=False)
      )
      (skip): Linear(in_features=197, out_features=256, bias=True)
    )
  )
  (convs): ModuleList(
    (0): StyleLayer(
      (conv): ModulatedConv2d(384, 384, 3, upsample=True)
      (noise): NoiseInjection()
      (activate): FusedLeakyReLU()
    )
    (1): StyleLayer(
      (conv): ModulatedConv2d(384, 384, 3, upsample=False)
      (noise): NoiseInjection()
      (activate): FusedLeakyReLU()
    )
    (2): StyleLayer(
…
